resource/deeplabv3_mnv2_dm05_pascal_quant_segment_1_of_2_edgetpu.tflite (tflite, 509088 bytes, 2 tensors)

concat_projection/weights_quant/FakeQuantWithMinMaxVars u1 [256, 1, 1, 512] scale=0.002516957 zero_point=132
00000000: 9372 9c73 8764 6468 749c da5f 717f 86af
00000010: a2ad 507e a089 6e64 7876 796a 9658 20a3
00000020: 509a 8091 939b aeae 767b 7958 5f93 72a6
00000030: 99af 9c5c 5c7d 9c8e 8587 769a 9355 b782
00000040: 4b9e 9981 4f82 8c92 7c8b 7b71 6985 9495
00000050: 8b5c 5876 839c 926e 7a98 8b8a 7071 927d
00000060: 77b1 9687 996d 8c6e a999 955a 71a1 79a7
00000070: 997a 6ca4 73ca 7f61 7593 6f7c 896c 7a58
00000080: 9d70 8291 9d64 9471 9f6c a13a 608b 6768
00000090: 24a1 4969 726e 9c9c 6987 bb7d 987f b13b
000000a0: 688b 7d59 777c a0a1 6165 56b7 a2b4 a572
000000b0: 8987 7e6c 796b a574 9774 7f9c 985a 6c77
000000c0: 7fd7 a994 8391 6ba2 6971 746e 724f 8486
000000d0: b898 a88f 6f9c 839c 6aa0 b3a7 5a8e 5b75
000000e0: 7784 9953 b481 9785 8278 a687 af66 74a2
000000f0: 7c62 a95f 757b 8f65 927c 787b 78ab 6876
0.037754357 -0.045305226 0.060406968 -0.042788267 0.007550871 -0.080542624 -0.080542624 -0.070474796
-0.040271312 0.060406968 0.2164583 -0.09312741 -0.047822185 -0.012584785 0.005033914 0.10822915
0.07550871 0.103195235 -0.13088176 -0.015101742 0.070474796 0.012584785 -0.055373054 -0.080542624
-0.030203484 -0.035237398 -0.027686527 -0.06544088 0.045305226 -0.11074611 -0.2516957 0.07802567
-0.13088176 0.055373054 -0.010067828 0.03272044 0.037754357 0.057890013 0.10571219 0.10571219
-0.035237398 -0.022652613 -0.027686527 -0.11074611 -0.09312741 0.037754357 -0.045305226 0.085576534
0.052856095 0.10822915 0.060406968 -0.10067828 -0.10067828 -0.017618699 0.060406968 0.02516957
0.002516957 0.007550871 -0.035237398 0.055373054 0.037754357 -0.11829698 0.1283648 -0.005033914
-0.14346655 0.06544088 0.052856095 -0.007550871 -0.13339873 -0.005033914 0.020135656 0.035237398
-0.020135656 0.017618699 -0.022652613 -0.047822185 -0.06795784 0.002516957 0.040271312 0.042788267
0.017618699 -0.10067828 -0.11074611 -0.035237398 -0.002516957 0.060406968 0.035237398 -0.055373054
-0.02516957 0.05033914 0.017618699 0.015101742 -0.05033914 -0.047822185 0.035237398 -0.017618699
-0.03272044 0.11326306 0.045305226 0.007550871 0.052856095 -0.057890013 0.020135656 -0.055373054
0.09312741 0.052856095 0.042788267 -0.10571219 -0.047822185 0.07299175 -0.027686527 0.0880935
0.052856095 -0.02516957 -0.060406968 0.080542624 -0.042788267 0.176187 -0.012584785 -0.0880935
-0.037754357 0.037754357 -0.052856095 -0.020135656 0.012584785 -0.060406968 -0.02516957 -0.11074611
0.06292392 -0.05033914 -0.005033914 0.03272044 0.06292392 -0.080542624 0.040271312 -0.047822185
0.06795784 -0.060406968 0.07299175 -0.18625481 -0.09061045 0.017618699 -0.07299175 -0.070474796
-0.24162787 0.07299175 -0.14850046 -0.06795784 -0.045305226 -0.055373054 0.060406968 0.060406968
-0.06795784 0.007550871 0.13843264 -0.017618699 0.05033914 -0.012584785 0.11326306 -0.18373786
-0.070474796 0.017618699 -0.017618699 -0.10822915 -0.03272044 -0.020135656 0.070474796 0.07299175
-0.0880935 -0.07802567 -0.115780026 0.1283648 0.07550871 0.120813936 0.08305958 -0.045305226
0.012584785 0.007550871 -0.015101742 -0.060406968 -0.027686527 -0.06292392 0.08305958 -0.040271312
0.047822185 -0.040271312 -0.012584785 0.060406968 0.05033914 -0.10571219 -0.060406968 -0.03272044
-0.012584785 0.20890743 0.09312741 0.040271312 -0.002516957 0.03272044 -0.06292392 0.07550871
-0.06795784 -0.047822185 -0.040271312 -0.055373054 -0.045305226 -0.13339873 0.0 0.005033914
0.13088176 0.05033914 0.09061045 0.027686527 -0.052856095 0.060406968 -0.002516957 0.060406968
-0.06544088 0.070474796 0.11829698 0.0880935 -0.10571219 0.02516957 -0.103195235 -0.037754357
-0.03272044 0.0 0.052856095 -0.12333089 0.120813936 -0.007550871 0.047822185 0.002516957
-0.005033914 -0.030203484 0.085576534 0.007550871 0.10822915 -0.07550871 -0.040271312 0.07550871
-0.020135656 -0.085576534 0.09312741 -0.09312741 -0.037754357 -0.022652613 0.027686527 -0.07802567
0.035237398 -0.020135656 -0.030203484 -0.022652613 -0.030203484 0.098161325 -0.070474796 -0.035237398

logits/semantic/weights_quant/FakeQuantWithMinMaxVars u1 [21, 1, 1, 256] scale=0.0044977525 zero_point=126
00000000: a1d6 98a1 94a6 aaa3 a490 a0be b88c b597
00000010: b3a5 9d68 a1aa 7054 8986 c4a0 afae 8899
00000020: a67f ac8a c4a9 9ba8 a092 969f 6a9e 9788
00000030: 9db7 f5c7 87a8 63a9 ada2 8b8d 8f8d 8094
00000040: a598 46a9 a2a6 a299 a1bf 9c94 a7a5 726e
00000050: 8fac a2c9 9799 d5b1 a6a9 928c a1da 9fa2
00000060: b49b b29b a9a8 d3a0 b983 9e9c b94e 8487
00000070: 93a3 7896 9abc 9ca0 639e 81f0 8799 9ca5
00000080: 889b 7793 bea8 9ba6 a794 8d9b 90af c1a6
00000090: a9cb 9e9d b2ab a782 b8a7 8586 80a1 b98e
000000a0: a898 9991 9f8a abbc c1c5 b394 aa8e 98a5
000000b0: a567 79ad 987b 80a2 8b90 94a2 9e9b a49d
000000c0: b78b c29c a298 6b57 968f 949c 98a2 ff8b
000000d0: 52a3 a55d 80a3 a8cb 958a 8f9e 7a8b e7a5
000000e0: 99a8 b0a8 58a4 9688 95bd a19a 9882 b099
000000f0: b07b 7f9c 83a5 a78f b19b aab4 a2d7 96c3
0.15742134 0.39580223 0.116941564 0.15742134 0.09895056 0.1799101 0.19790111 0.16641684
0.17091459 0.08095954 0.15292358 0.28785616 0.26086965 0.06296854 0.24737638 0.11244381
0.23838088 0.17541234 0.13943033 -0.09895056 0.15742134 0.19790111 -0.06296854 -0.18890561
0.04947528 0.03598202 0.31484267 0.15292358 0.22038987 0.21589212 0.044977523 0.121439315
0.1799101 0.0044977525 0.20689662 0.05397303 0.31484267 0.19340336 0.13043483 0.18890561
0.15292358 0.08995505 0.10794606 0.14842583 -0.08995505 0.14392808 0.11244381 0.044977523
0.13943033 0.2563719 0.53523254 0.32833594 0.04047977 0.18890561 -0.121439315 0.19340336
0.21139437 0.16191909 0.058470782 0.06746629 0.07646179 0.06746629 0.008995505 0.09895056
0.17541234 0.116941564 -0.25187415 0.19340336 0.16191909 0.1799101 0.16191909 0.121439315
0.15742134 0.29235393 0.13493258 0.09895056 0.18440786 0.17541234 -0.05397303 -0.07196404
0.07646179 0.20689662 0.16191909 0.33733144 0.11244381 0.121439315 0.39130446 0.22938538
0.1799101 0.19340336 0.08995505 0.06296854 0.15742134 0.41379324 0.14842583 0.16191909
0.24287863 0.13043483 0.23388313 0.13043483 0.19340336 0.18890561 0.38230896 0.15292358
0.2653674 0.022488762 0.14392808 0.13493258 0.2653674 -0.21589212 0.026986515 0.04047977
0.094452806 0.16641684 -0.026986515 0.10794606 0.12593707 0.27886066 0.13493258 0.15292358
-0.121439315 0.14392808 0.013493258 0.5127438 0.04047977 0.121439315 0.13493258 0.17541234
0.044977523 0.13043483 -0.03148427 0.094452806 0.28785616 0.18890561 0.13043483 0.1799101
0.18440786 0.09895056 0.06746629 0.13043483 0.08095954 0.22038987 0.30134943 0.1799101
0.19340336 0.34632695 0.14392808 0.13943033 0.23388313 0.20239887 0.18440786 0.01799101
0.26086965 0.18440786 0.03148427 0.03598202 0.008995505 0.15742134 0.2653674 0.07196404
0.18890561 0.116941564 0.121439315 0.085457295 0.14842583 0.05397303 0.20239887 0.27886066
0.30134943 0.31934044 0.23838088 0.09895056 0.19790111 0.07196404 0.116941564 0.17541234
0.17541234 -0.10344831 -0.022488762 0.21139437 0.116941564 -0.013493258 0.008995505 0.16191909
0.058470782 0.08095954 0.09895056 0.16191909 0.14392808 0.13043483 0.17091459 0.13943033
0.2563719 0.058470782 0.30584717 0.13493258 0.16191909 0.116941564 -0.085457295 -0.17541234
0.10794606 0.07646179 0.09895056 0.13493258 0.116941564 0.16191909 0.5802101 0.058470782
-0.19790111 0.16641684 0.17541234 -0.14842583 0.008995505 0.16641684 0.18890561 0.34632695
0.10344831 0.05397303 0.07646179 0.14392808 -0.01799101 0.058470782 0.47226402 0.17541234
0.121439315 0.18890561 0.22488762 0.18890561 -0.17091459 0.17091459 0.10794606 0.044977523
0.10344831 0.2833584 0.15742134 0.12593707 0.116941564 0.01799101 0.22488762 0.121439315
0.22488762 -0.013493258 0.0044977525 0.13493258 0.022488762 0.17541234 0.18440786 0.07646179
0.22938538 0.13043483 0.19790111 0.24287863 0.16191909 0.40029997 0.10794606 0.31034493
